PythonMLCourse/Part2/Seminar03/Homework/task/kernel.npy (npy, 3328 bytes, 1 tensors)

array f8 [5, 5, 4, 4]
0.19172404258533646 -0.4214611197387295 -2.354619386326761 0.273623752021002 -0.288695098583762 1.1554353861119722 -0.21533208315315505 -1.039203132140662
-0.2762958409090566 -0.9992629967958581 -0.13280571084021126 0.3242766693762687 -1.4706088530934367 1.552555742835717 0.07267120862073667 1.1493236869420231
1.8991633652072333 0.8405400883133476 0.5108422531532922 -1.335363124317719 0.7164787104413515 -0.4051158092425833 -0.12374408429409554 1.5355934663961575
-0.2399937551145531 -0.310185494322546 0.6283871020672833 1.1172303596442537 0.2797543856457551 0.6720244924097556 0.4917973394877934 -0.35994472579388
0.6135728834135026 -1.2647234568796082 0.3842422358732843 0.8217596554856977 -0.4989168769739707 0.6077277369714221 -0.08187292324480196 0.025525078709786403
-0.06023034018794108 -0.8940512825105187 -1.7094754023383685 1.0129504868880248 0.5552871110363462 -0.9604906228820421 0.4826888055980163 0.9577659407574367
0.7696582349044747 0.8300850991716691 -1.956496652605515 0.10188035597417494 -1.6367479541385317 -0.8432371091481711 0.344507958127334 0.8446362168946644
-0.07606077691636037 -0.887979460026304 -0.49728121227388594 0.7159862677373398 0.27140101435507913 -0.026652962945900877 0.11269816179710469 0.8720273652480193
0.3409713952298231 1.3501071684925847 1.6117591078383822 2.2228363459465226 1.5534727646018918 -1.209571135999932 -0.7025018158767882 -0.06887571748523083
0.30886664406985137 -0.26352456986596023 1.723734092410169 0.23057571705952534 1.5046752650518216 0.4864336257402186 0.9551632252057485 -0.19232944143907094
0.278196045302116 -1.759792409494792 0.6776341920426132 -0.2858065312409065 -0.1293319532722087 -0.05206757170020014 1.274877046874518 -1.0572459966197847
1.1819066859114693 -0.024048059335488495 1.3409979720900285 0.11238919631490542 -0.4957814175223891 2.0545518160245138 -0.6123728502770011 -0.8484609613608086
-0.17864820350098184 -1.1294532425729362 1.0837116770672546 -0.9527571934491318 -0.7530518064001351 -0.19620302919766114 0.03530328612526119 -0.4785688551966058
-0.27494138642807064 1.7409760923797901 0.2836524043767751 -0.48470410259982016 -0.546248213539373 0.7096429020550771 0.3851341812133645 -2.082817030501883
0.6757603410657601 -0.589254405644177 -0.2567932128018014 0.18174787993883446 1.4094663677477373 -0.6668814140857052 0.35381779811333675 -0.3249880596464856
0.41426542051061166 1.3185945358161848 3.1084804326917035 -0.6832666013971491 0.9722317032671935 0.9149214571966204 1.6546230589915671 0.2962093808747895
0.04694484419196323 -0.7582322944562251 -0.1511531147092157 -1.2468191081163635 0.14666492512430376 1.322115874236457 0.02134667795385544 0.24064837221881372
-0.5801489082635573 0.10991898480017107 0.23330591894612926 0.4891709104071457 -0.34240203050778456 0.019707061034126176 -1.0528789777019294 -0.08065229101972915
0.28847181033453967 -0.27572148391809526 0.17446652253616024 -1.0965255217813088 -1.5958004087125368 -0.7598769965418858 0.3111483644261338 0.7937405105827047
-0.723103239415742 0.07337214765769474 -0.8057204974954821 0.98663836517369 -0.05500354798931312 0.16470955901740045 -0.3787900999534987 -0.0274315069955936
-0.16001485873691818 0.1968928217322592 0.5182295125356792 0.6049924829815815 -1.118126578874582 -0.22486124475721608 0.39433312201914433 1.3329647239820142
1.7974660303219514 0.19269089021159932 -1.4818266884302207 0.3762718521816222 0.16719995053191944 1.0386654698965436 -1.7100801803417818 0.4187115962805554
-0.15706130285585204 0.928374666780039 -0.9322930035837961 1.3492879505747755 -0.933847400185145 0.6674233883650056 1.498480110565939 0.312893206587908
2.264106309176471 0.5765997213372613 -0.41252773707312085 -0.7633139003609326 0.7348601614918419 -0.3729926933388154 0.457831943324179 -0.5231081012622438
-2.4408945448131107 -0.9553816516187333 -0.36671089243925903 1.0890339899924557 1.0922979732495737 -0.8747490817303455 0.9925343240443852 -0.36276879842773946
-0.6393087544262983 0.12563599919781654 -0.7205194933783222 -1.3345040873313165 -0.9891347733459772 0.8669320122080055 -1.0497646865889152 -1.0464390102731613
0.9128900735738762 -0.2867318790754876 1.257136241403793 0.7776031870266082 0.03685655345007754 1.409168775155164 -0.6127771765338884 -1.0775059860449172
1.2819659858968928 -0.06419807407385351 1.274281589390692 -0.03997158299912928 0.6484037130268178 0.6754445753438846 0.9060354058323032 2.2077590090302937
0.788096637767257 -0.9721984686970206 -0.5747165030276036 0.04472723948994901 1.8063455887216366 0.4139326596895802 -1.3225097257907215 -1.2522371498302767
1.2517788745911367 -0.466570755311655 0.6356679378862922 1.9184094732771781 0.5586663006680826 -0.6185665804332241 -0.8507284300589392 0.2505856892118966
-0.4554413222358921 -0.6374816217694428 -0.7858945622547935 0.6694077786462708 -0.7360684371048902 0.9491832251945503 0.6888467648553749 -3.0330162431109438
1.26292953235396 -0.3858269624890983 0.14545483886429128 -0.18295336871333504 0.19032619432736894 1.1918897357235956 0.7615286876467244 -1.0351344780483176
00000000: 3366 61d6 698a c83f 790e 740f 38f9 dabf
00000010: 8168 56b0 42d6 02c0 76b2 9532 0d83 d13f
00000020: 3db2 bb01 fb79 d2bf 73df bfd0 a97c f23f
00000030: ae0f 766f 0090 cbbf 5a1e a776 93a0 f0bf
00000040: f569 2ec0 d4ae d1bf cfea 6a64 f6f9 efbf
00000050: 4aef 630c c7ff c0bf 95eb 74ee f2c0 d43f
00000060: fae8 1326 9d87 f7bf 6b24 cbb0 44d7 f83f
00000070: 1409 6390 949a b23f 34f2 fe3b a163 f23f
00000080: d138 f51f f962 fe3f 880c c953 b4e5 ea3f
00000090: bfaa 56da d158 e03f eda9 33b9 a55d f5bf
000000a0: 0807 b4c2 64ed e63f ac86 f2db 6aed d9bf
000000b0: ffd9 1d3b b1ad bfbf dff6 6174 ca91 f83f
000000c0: db09 bb88 1db8 cebf 7dc5 7342 14da d3bf
000000d0: 266e 9344 bf1b e43f 8253 0cf1 2ce0 f13f
000000e0: b3b5 50f0 7ee7 d13f 4c59 2082 3981 e53f
000000f0: 4f08 578c 9b79 df3f f5c0 699a 5509 d7bf
00000100: 3626 7f99 63a2 e33f 0183 dca9 4e3c f4bf
00000110: c654 34bf 6c97 d83f 2f77 afe7 da4b ea3f
00000120: 68a4 810d 41ee dfbf 5742 6570 8172 e33f
00000130: f5ab c3b7 9ff5 b4bf 283b 2509 3f23 9a3f
00000140: 3517 abda 82d6 aebf 8c8b 6a6f 119c ecbf
00000150: 79c1 25e1 025a fbbf e76b da91 0b35 f03f
00000160: 6053 b979 e9c4 e13f c993 acd4 56bc eebf
00000170: 0015 8c96 5fe4 de3f e1d3 18c2 04a6 ee3f
00000180: b460 804e 0aa1 e83f 04db 3aa0 0e90 ea3f
00000190: 5cc9 1a6f cf4d ffbf 3c90 03bd d414 ba3f
000001a0: 511e 6d9f 1e30 fabf 4b14 d263 ccfb eabf
000001b0: bf97 571b 6b0c d63f 488d 1288 4207 eb3f
000001c0: f036 5d15 b878 b3bf 9aa5 8ae6 536a ecbf
000001d0: b56b e893 74d3 dfbf a724 8a08 5ce9 e63f
000001e0: 1467 305c a25e d13f b5cd c610 ea4a 9bbf
000001f0: c9e5 3c67 c9d9 bc3f 1ea2 deee a5e7 eb3f
00000200: 968c d8af 79d2 d53f 4055 6cf9 099a f53f
00000210: c522 13eb c3c9 f93f 899a 116c 5ec8 0140
00000220: be11 f341 06db f83f 69e2 7443 675a f3bf
00000230: 1049 9216 e57a e6bf 126d 16ca d6a1 b1bf
00000240: f9bc c699 78c4 d33f b312 5128 96dd d0bf
00000250: 416e 1e33 6a94 fb3f 5ade 024e 8183 cd3f
00000260: 9af6 e75e 2613 f83f ffa6 8e80 ba21 df3f
00000270: e437 d377 b290 ee3f fcf5 844a 409e c8bf
00000280: 6dbe 1cc9 f6cd d13f 7d77 e815 1c28 fcbf
00000290: 582e afe6 2daf e53f e26c 2a7a a74a d2bf
000002a0: 4ce3 d00e f38d c0bf 7edc 44cb 99a8 aabf
000002b0: 2ef4 6b79 e565 f43f 43f1 34c7 7aea f0bf
000002c0: b79d 2efc 16e9 f23f 6444 83f1 0da0 98bf
000002d0: 5b10 224a ba74 f53f 59a3 98d2 89c5 bc3f
000002e0: 9f48 8efb e1ba dfbf 001a cedc b86f 0040
000002f0: 9dbc 9cf2 8e98 e3bf cd46 1f9a 9726 ebbf
00000300: b34f c3bf f1dd c6bf 0264 3390 3d12 f2bf
00000310: 37c1 340e e256 f13f 8b91 5ca7 fc7c eebf
00000320: 6fd5 151a 0019 e8bf ead9 e34c 2e1d c9bf
00000330: 09db b2b6 4513 a23f 7b07 7d43 dfa0 debf
00000340: 2aa1 c1c1 a398 d1bf a539 3ebf 09db fb3f
00000350: 96b8 0e6a 5c27 d23f f3ce 395b 6405 dfbf
00000360: 0fcd 9488 dd7a e1bf 6548 0508 65b5 e63f
00000370: 5685 38d6 09a6 d83f 9a75 acf9 9ba9 00c0
00000380: b9f5 9926 d49f e53f 4580 280e 2cdb e2bf
00000390: 6562 b4cc 4c6f d0bf 4431 3ab8 8343 c73f
000003a0: 749d 249b 2c8d f63f e7dd f9b0 1757 e5bf
000003b0: c3ed e867 f3a4 d63f f46a f1b7 9acc d4bf
000003c0: a23b 3d1c 5383 da3f ae3c 8095 f618 f53f
000003d0: 9955 35fd 2ade 0840 f464 6eeb 51dd e5bf
000003e0: d757 35a9 851c ef3f 462e 225d 0947 ed3f
000003f0: 5c38 5907 5679 fa3f 4d0a e830 18f5 d23f
00000400: 7364 0a95 2709 a83f a7bc 6e5f 7043 e8bf
00000410: cdab 2e3a fc58 c3bf e533 d697 f8f2 f3bf
00000420: c188 7090 eac5 c23f 75e3 95f9 6227 f53f
00000430: 569d c24e e7db 953f eff9 41dc 90cd ce3f
00000440: a9aa 7971 9490 e2bf 1a1f ed8c a623 bc3f
00000450: f71d ebe5 f7dc cd3f 6f9b 9681 934e df3f
00000460: ff5a c734 eae9 d5bf 9140 917a 162e 943f
00000470: de02 7ea0 97d8 f0bf 50f7 46e8 a0a5 b4bf
00000480: d51a cd77 5276 d23f 58e6 0eb9 6ba5 d1bf
00000490: 6c13 4544 eb54 c63f 1d7b 7458 5e8b f1bf
000004a0: 0ad2 6502 6688 f9bf d129 2490 e950 e8bf
000004b0: 2e81 5ad4 dae9 d33f 60d1 ce7f 5266 e93f
000004c0: 3c83 9d67 a923 e7bf 7188 a05e 84c8 b23f
000004d0: e0b7 4e5a 76c8 e9bf 03cc ec9e 8a92 ef3f
000004e0: b85e 8ecf 6c29 acbf 9bbe a8ec 3315 c53f
000004f0: 8753 d6d4 183e d8bf 9f4b b445 0117 9cbf
00000500: 7a16 93ec 5d7b c4bf 801f 14b3 c833 c93f
00000510: 5d35 050f 5695 e03f 536a 1732 195c e33f
00000520: 07e0 10b2 d8e3 f1bf 425f 2fd6 40c8 ccbf
00000530: bb50 b3fd c03c d93f 3797 83d1 d253 f53f
00000540: a975 7ebd 6bc2 fc3f bf14 d957 18aa c83f
00000550: 4e5d d2e6 8fb5 f7bf 60a0 e188 d614 d83f
00000560: 6eb5 b6d7 ce66 c53f c30a 0baf 5f9e f03f
00000570: 17b1 0109 7d5c fbbf bbc7 1eb9 2bcc da3f
00000580: 1fd4 9db3 951a c4bf 502a 08ca 3eb5 ed3f
00000590: 11d3 1523 58d5 edbf 3bb0 49f6 ae96 f53f
000005a0: 8bfe 67f1 13e2 edbf 629f 334b 885b e53f
000005b0: 0f65 c947 c6f9 f73f 78e1 5b3a 7106 d43f
000005c0: 44a4 c4c4 e31c 0240 0cd7 4042 8173 e23f
000005d0: 1401 dbbc da66 dabf b03c d445 116d e8bf
000005e0: 23b4 1775 f983 e73f fb60 e2be 1cdf d7bf
000005f0: ea0d e959 1e4d dd3f 3235 6633 4dbd e0bf
00000600: 2da8 17b8 f386 03c0 61d4 9c8a 7c92 eebf
00000610: 1445 87f6 3078 d7bf f4ff b3e7 ae6c f13f
00000620: 0881 8970 0d7a f13f 979c 47c9 f1fd ebbf
00000630: 01b3 bd57 d7c2 ef3f 2868 509f 9a37 d7bf
00000640: 9ad6 09a2 3775 e4bf b4a0 e025 d714 c03f
00000650: 9d17 86e5 7e0e e7bf 1976 37f5 205a f5bf
00000660: 5e6f dbf7 fda6 efbf 503e 0934 e8bd eb3f
00000670: 4052 560e d6cb f0bf 001c e6d4 36be f0bf
00000680: 7bf8 5a3e 6536 ed3f e063 d6aa d059 d2bf
00000690: 6421 37e4 3a1d f43f ce6d 3114 20e2 e83f
000006a0: 3f37 6cb7 dcde a23f 775f bd8e f48b f63f
000006b0: 3958 9ee1 de9b e3bf 18ea b4ea 763d f1bf
000006c0: 512f 00c4 ee82 f43f e306 9df4 486f b0bf
000006d0: 2c3f 8517 7563 f43f ef4f 80c3 2777 a4bf
000006e0: cdc3 c124 b9bf e43f 5b9a 2bf1 3d9d e53f
000006f0: aa2b a2f6 3dfe ec3f 37e0 298e 7da9 0140
00000700: 9f88 a970 1638 e93f aacc 88f6 3f1c efbf
00000710: 8c33 1fdd 1364 e2bf a90a b31d 7de6 a63f
00000720: 2e55 cda1 cae6 fc3f 1f3c 0769 df7d da3f
00000730: f69b 4ef5 ff28 f5bf 76b7 55d2 2909 f4bf
00000740: f614 0349 4907 f43f 5159 d595 4bdc ddbf
00000750: dacb 8a49 6457 e43f 39fe c021 ceb1 fe3f
00000760: 1de5 5726 98e0 e13f fc7e 2b24 4ccb e3bf
00000770: 9b2d 1cd4 2a39 ebbf 92af 008f 9809 d03f
00000780: 8702 105c f325 ddbf 24a0 a9db 3f66 e4bf
00000790: 66a2 5f5a 0c26 e9bf e128 9fdc c96b e53f
000007a0: 7e77 1f65 df8d e7bf adea c37f b55f ee3f
000007b0: ac4b e05e 080b e63f b22f 2305 9e43 08c0
000007c0: 29ce e998 f534 f43f 8690 7392 63b1 d8bf
000007d0: 4ec9 fb9f 439e c23f 058d a817 046b c7bf
000007e0: fba5 1ad6 9b5c c83f 50ef b5f8 fa11 f33f
000007f0: 4612 0d69 715e e83f 74df a22b e98f f0bf
